…
2025-09-16 19:56:13,529 - INFO - 创建模型: 节点数=207, 时间步=12, 隐藏层大小=64
2025-09-16 19:56:13,534 - INFO - 初始化模糊推理系统...
2025-09-16 19:56:14,555 - WARNING - From C:\Downloads\Anaconda\Lib\site-packages\keras\src\backend\tensorflow\core.py:232: The name tf.placeholder is deprecated. Please use tf.compat.v1.placeholder instead.

2025-09-16 19:56:14,639 - INFO - 模型结构摘要:
2025-09-16 19:56:14,653 - INFO - Model: "functional"
┏━━━━━━━━━━━━━━━━━━━┳━━━━━━━━━━━━━━━━━┳━━━━━━━━━━━┳━━━━━━━━━━━━━━━━━┓
┃ Layer (type)      ┃ Output Shape    ┃   Param # ┃ Connected to    ┃
┡━━━━━━━━━━━━━━━━━━━╇━━━━━━━━━━━━━━━━━╇━━━━━━━━━━━╇━━━━━━━━━━━━━━━━━┩
│ input_layer       │ (None, 12, 207) │         0 │ -               │
│ (InputLayer)      │                 │           │                 │
├───────────────────┼─────────────────┼───────────┼─────────────────┤
│ reshape (Reshape) │ (None, 12, 207, │         0 │ input_layer[0]… │
│                   │ 1)              │           │                 │
├───────────────────┼─────────────────┼───────────┼─────────────────┤
│ permute (Permute) │ (None, 207, 12, │         0 │ reshape[0][0]   │
│                   │ 1)              │           │                 │
├───────────────────┼─────────────────┼───────────┼─────────────────┤
│ reshape_1         │ (None, 207, 12) │         0 │ permute[0][0]   │
│ (Reshape)         │                 │           │                 │
├───────────────────┼─────────────────┼───────────┼─────────────────┤
│ input_layer_1     │ (None, 207,     │         0 │ -               │
│ (InputLayer)      │ 207)            │           │                 │
├───────────────────┼─────────────────┼───────────┼─────────────────┤
│ gcn_layer         │ (None, 207, 32) │       416 │ reshape_1[0][0… │
│ (GCNLayer)        │                 │           │ input_layer_1[… │
├───────────────────┼─────────────────┼───────────┼─────────────────┤
│ batch_normalizat… │ (None, 207, 32) │       128 │ gcn_layer[0][0] │
│ (BatchNormalizat… │                 │           │                 │
├───────────────────┼─────────────────┼───────────┼─────────────────┤
│ input_layer_2     │ (None, 207, 10) │         0 │ -               │
│ (InputLayer)      │                 │           │                 │
├───────────────────┼─────────────────┼───────────┼─────────────────┤
│ gcn_layer_1       │ (None, 207, 32) │     1,056 │ batch_normaliz… │
│ (GCNLayer)        │                 │           │ input_layer_1[… │
├───────────────────┼─────────────────┼───────────┼─────────────────┤
│ global_average_p… │ (None, 10)      │         0 │ input_layer_2[… │
│ (GlobalAveragePo… │                 │           │                 │
├───────────────────┼─────────────────┼───────────┼─────────────────┤
│ batch_normalizat… │ (None, 207, 32) │       128 │ gcn_layer_1[0]… │
│ (BatchNormalizat… │                 │           │                 │
├───────────────────┼─────────────────┼───────────┼─────────────────┤
│ dense (Dense)     │ (None, 64)      │       704 │ global_average… │
├───────────────────┼─────────────────┼───────────┼─────────────────┤
│ dropout (Dropout) │ (None, 128)     │         0 │ dense[0][0],    │
│                   │                 │           │ dense_2[0][0]   │
├───────────────────┼─────────────────┼───────────┼─────────────────┤
│ reshape_2         │ (None, 12, 552) │         0 │ batch_normaliz… │
│ (Reshape)         │                 │           │                 │
├───────────────────┼─────────────────┼───────────┼─────────────────┤
│ gru (GRU)         │ (None, 12, 64)  │   118,656 │ reshape_2[0][0] │
├───────────────────┼─────────────────┼───────────┼─────────────────┤
│ dense_1 (Dense)   │ (None, 32)      │     2,080 │ dropout[0][0]   │
├───────────────────┼─────────────────┼───────────┼─────────────────┤
│ gru_1 (GRU)       │ (None, 64)      │    24,960 │ gru[0][0]       │
├───────────────────┼─────────────────┼───────────┼─────────────────┤
│ batch_normalizat… │ (None, 32)      │       128 │ dense_1[0][0]   │
│ (BatchNormalizat… │                 │           │                 │
├───────────────────┼─────────────────┼───────────┼─────────────────┤
│ concatenate       │ (None, 96)      │         0 │ gru_1[0][0],    │
│ (Concatenate)     │                 │           │ batch_normaliz… │
├───────────────────┼─────────────────┼───────────┼─────────────────┤
│ dense_2 (Dense)   │ (None, 128)     │    12,416 │ concatenate[0]… │
├───────────────────┼─────────────────┼───────────┼─────────────────┤
│ dense_3 (Dense)   │ (None, 64)      │     8,256 │ dropout[1][0]   │
├───────────────────┼─────────────────┼───────────┼─────────────────┤
│ dense_4 (Dense)   │ (None, 207)     │    13,455 │ dense_3[0][0]   │
└───────────────────┴─────────────────┴───────────┴─────────────────┘
 Total params: 182,383 (712.43 KB)
 Trainable params: 182,191 (711.68 KB)
 Non-trainable params: 192 (768.00 B)

2025-09-16 19:56:14,657 - INFO - 初始化模糊推理系统...
2025-09-16 19:56:14,657 - INFO - 初始化模糊推理系统...
2025-09-16 19:56:14,658 - INFO - 模型目录已创建: D:\大三夏季学期\交通车辆速度预测应用系统\models
2025-09-16 19:56:14,658 - INFO - 日志目录已创建: D:\大三夏季学期\交通车辆速度预测应用系统\logs
…
