…
│ (ExpandDims)         │ 207)              │           │                    │
├──────────────────────┼───────────────────┼───────────┼────────────────────┤
│ expand_dims          │ (None, 12, 207,   │         0 │ input_layer[0][0]  │
│ (ExpandDims)         │ 1)                │           │                    │
├──────────────────────┼───────────────────┼───────────┼────────────────────┤
│ tile (Tile)          │ (None, 12, 207,   │         0 │ expand_dims_1[0][… │
│                      │ 207)              │           │                    │
├──────────────────────┼───────────────────┼───────────┼────────────────────┤
│ reshape (Reshape)    │ (None, 207, 1)    │         0 │ expand_dims[0][0]  │
├──────────────────────┼───────────────────┼───────────┼────────────────────┤
│ reshape_1 (Reshape)  │ (None, 207, 207)  │         0 │ tile[0][0]         │
├──────────────────────┼───────────────────┼───────────┼────────────────────┤
│ gcn_layer (GCNLayer) │ (None, 207, 32)   │        64 │ reshape[0][0],     │
│                      │                   │           │ reshape_1[0][0]    │
├──────────────────────┼───────────────────┼───────────┼────────────────────┤
│ batch_normalization  │ (None, 207, 32)   │       128 │ gcn_layer[0][0]    │
│ (BatchNormalization) │                   │           │                    │
├──────────────────────┼───────────────────┼───────────┼────────────────────┤
│ gcn_layer_1          │ (None, 207, 32)   │     1,056 │ batch_normalizati… │
│ (GCNLayer)           │                   │           │ reshape_1[0][0]    │
├──────────────────────┼───────────────────┼───────────┼────────────────────┤
│ input_layer_2        │ (None, 207, 10)   │         0 │ -                  │
│ (InputLayer)         │                   │           │                    │
├──────────────────────┼───────────────────┼───────────┼────────────────────┤
│ batch_normalization… │ (None, 207, 32)   │       128 │ gcn_layer_1[0][0]  │
│ (BatchNormalization) │                   │           │                    │
├──────────────────────┼───────────────────┼───────────┼────────────────────┤
│ mean (Mean)          │ (None, 10)        │         0 │ input_layer_2[0][… │
├──────────────────────┼───────────────────┼───────────┼────────────────────┤
│ reshape_2 (Reshape)  │ (None, 12, 207,   │         0 │ batch_normalizati… │
│                      │ 32)               │           │                    │
├──────────────────────┼───────────────────┼───────────┼────────────────────┤
│ dense (Dense)        │ (None, 64)        │       704 │ mean[0][0]         │
├──────────────────────┼───────────────────┼───────────┼────────────────────┤
│ dropout (Dropout)    │ (None, 128)       │         0 │ dense[0][0],       │
│                      │                   │           │ dense_2[0][0]      │
├──────────────────────┼───────────────────┼───────────┼────────────────────┤
│ reshape_3 (Reshape)  │ (None, 12, 6624)  │         0 │ reshape_2[0][0]    │
├──────────────────────┼───────────────────┼───────────┼────────────────────┤
│ gru (GRU)            │ (None, 12, 64)    │ 1,284,480 │ reshape_3[0][0]    │
├──────────────────────┼───────────────────┼───────────┼────────────────────┤
│ dense_1 (Dense)      │ (None, 32)        │     2,080 │ dropout[0][0]      │
├──────────────────────┼───────────────────┼───────────┼────────────────────┤
│ gru_1 (GRU)          │ (None, 64)        │    24,960 │ gru[0][0]          │
├──────────────────────┼───────────────────┼───────────┼────────────────────┤
│ batch_normalization… │ (None, 32)        │       128 │ dense_1[0][0]      │
│ (BatchNormalization) │                   │           │                    │
├──────────────────────┼───────────────────┼───────────┼────────────────────┤
│ concatenate          │ (None, 96)        │         0 │ gru_1[0][0],       │
│ (Concatenate)        │                   │           │ batch_normalizati… │
├──────────────────────┼───────────────────┼───────────┼────────────────────┤
│ dense_2 (Dense)      │ (None, 128)       │    12,416 │ concatenate[0][0]  │
├──────────────────────┼───────────────────┼───────────┼────────────────────┤
│ dense_3 (Dense)      │ (None, 64)        │     8,256 │ dropout[1][0]      │
├──────────────────────┼───────────────────┼───────────┼────────────────────┤
│ dense_4 (Dense)      │ (None, 207)       │    13,455 │ dense_3[0][0]      │
└──────────────────────┴───────────────────┴───────────┴────────────────────┘
 Total params: 1,347,855 (5.14 MB)
 Trainable params: 1,347,663 (5.14 MB)
 Non-trainable params: 192 (768.00 B)

2025-09-19 00:06:25,633 - src.model_training - INFO - 初始化模糊推理系统...
2025-09-19 00:06:25,634 - TrafficPrediction - INFO - 初始化模糊推理系统...
2025-09-19 00:06:25,635 - src.model_training - INFO - 模型目录已创建: D:\大三夏季学期\交通车辆速度预测应用系统\models
…
