…
├─────────────────┼────────────────┼─────────┼────────────────┤
│ batch_normaliz… │ (None, 207,    │     128 │ gcn_layer[0][… │
│ (BatchNormaliz… │ 32)            │         │                │
├─────────────────┼────────────────┼─────────┼────────────────┤
│ input_layer_2   │ (None, 207,    │       0 │ -              │
│ (InputLayer)    │ 10)            │         │                │
├─────────────────┼────────────────┼─────────┼────────────────┤
│ gcn_layer_1     │ (None, 207,    │   1,056 │ batch_normali… │
│ (GCNLayer)      │ 32)            │         │ input_layer_1… │
├─────────────────┼────────────────┼─────────┼────────────────┤
│ global_average… │ (None, 10)     │       0 │ input_layer_2… │
│ (GlobalAverage… │                │         │                │
├─────────────────┼────────────────┼─────────┼────────────────┤
│ batch_normaliz… │ (None, 207,    │     128 │ gcn_layer_1[0… │
│ (BatchNormaliz… │ 32)            │         │                │
├─────────────────┼────────────────┼─────────┼────────────────┤
│ dense (Dense)   │ (None, 64)     │     704 │ global_averag… │
├─────────────────┼────────────────┼─────────┼────────────────┤
│ dropout         │ (None, 128)    │       0 │ dense[0][0],   │
│ (Dropout)       │                │         │ dense_2[0][0]  │
├─────────────────┼────────────────┼─────────┼────────────────┤
│ reshape_2       │ (None, 12,     │       0 │ batch_normali… │
│ (Reshape)       │ 552)           │         │                │
├─────────────────┼────────────────┼─────────┼────────────────┤
│ gru (GRU)       │ (None, 12, 64) │ 118,656 │ reshape_2[0][… │
├─────────────────┼────────────────┼─────────┼────────────────┤
│ dense_1 (Dense) │ (None, 32)     │   2,080 │ dropout[0][0]  │
├─────────────────┼────────────────┼─────────┼────────────────┤
│ gru_1 (GRU)     │ (None, 64)     │  24,960 │ gru[0][0]      │
├─────────────────┼────────────────┼─────────┼────────────────┤
│ batch_normaliz… │ (None, 32)     │     128 │ dense_1[0][0]  │
│ (BatchNormaliz… │                │         │                │
├─────────────────┼────────────────┼─────────┼────────────────┤
│ concatenate     │ (None, 96)     │       0 │ gru_1[0][0],   │
│ (Concatenate)   │                │         │ batch_normali… │
├─────────────────┼────────────────┼─────────┼────────────────┤
│ dense_2 (Dense) │ (None, 128)    │  12,416 │ concatenate[0… │
├─────────────────┼────────────────┼─────────┼────────────────┤
│ dense_3 (Dense) │ (None, 64)     │   8,256 │ dropout[1][0]  │
├─────────────────┼────────────────┼─────────┼────────────────┤
│ dense_4 (Dense) │ (None, 207)    │  13,455 │ dense_3[0][0]  │
└─────────────────┴────────────────┴─────────┴────────────────┘
 Total params: 182,383 (712.43 KB)
 Trainable params: 182,191 (711.68 KB)
 Non-trainable params: 192 (768.00 B)

2025-09-16 21:54:44,393 - src.model_training - INFO - 初始化模糊推理系统...
2025-09-16 21:54:44,393 - TrafficPrediction - INFO - 初始化模糊推理系统...
2025-09-16 21:54:44,393 - src.model_training - INFO - 模型目录已创建: D:\大三夏季学期\交通车辆速度预测应用系统\models
…
